8_ML_DL/C_MLP/model_weights.pth (torch, 43202 bytes, 5 tensors)

C f4 [27, 2]
0.41917822 -0.23137668 -0.0012523588 -0.2794882 0.34689018 0.32923862 -0.78535044 0.5819079
0.117544435 0.27449983 -0.1759836 -0.28021538 0.25001857 0.38253063 0.7460301 2.1432252
0.12437074 0.25956297 -0.34793022 -0.15753612 0.061910883 0.37193844 0.11845697 0.2773937
-0.2182403 0.533017 0.19319533 0.43818805 -0.5667829 0.22707185 -0.122010484 -0.38590333
0.2325908 0.18662164 0.15652138 1.1782455 -0.24361555 0.31208637 0.021428658 0.15060262
0.054973744 0.16436602 -0.1541805 -0.18973008 0.12914358 0.5067002 0.027205117 0.27902547
-0.28733936 0.19434647 -0.62246776 -0.1658306 0.082395695 0.33755887
00000000: 879e d63e 02ee 6cbe 3026 a4ba 1419 8fbe
00000010: 979b b13e f791 a83e ba0c 49bf ebf7 143f
00000020: 23bb f03d 3e8b 8c3e 0b35 34be 6478 8fbe
00000030: 6f02 803e 0edb c33e d4fb 3e3f 9a2a 0940
00000040: 16b6 fe3d 70e5 843e e923 b2be 2651 21be
00000050: 4496 7d3d b76e be3e 9199 f23d 8c06 8e3e
00000060: 637a 5fbe cd73 083f ffd4 453e 2f5a e03e
00000070: af18 11bf 8685 683e a2e0 f9bd 1f95 c5be
00000080: 482c 6e3e be19 3f3e 2447 203e c0d0 963f
00000090: 5b76 79be c9c9 9f3e 278b af3c 9337 1a3e
000000a0: 262c 613d 914f 283e 7ee1 1dbe 9a48 42be
000000b0: 373e 043e 1bb7 013f 44dd de3c 6ddc 8e3e
000000c0: 251e 93be c302 473e 0c5a 1fbf 7fcf 29be
000000d0: 13bf a83d 84d4 ac3e

W1 f4 [6, 300]
0.87723845 1.7245983 0.39209366 -0.2665713 -1.3754553 -0.45307505 -1.439304 -0.505853
-0.8493307 -0.098055035 -2.0112824 -0.8739073 0.1089509 0.017976105 -0.5744886 -0.58742493
0.7897045 -0.6605582 0.07755239 0.28095856 1.3457736 -0.4289835 -0.111485936 -1.5248317
-0.15054017 1.2343948 -1.1693387 0.04904337 -0.050011836 0.74053663 -0.3784722 2.2558963
-1.8903815 -0.31293523 0.51526463 1.056335 0.023328103 1.2575312 1.1412209 0.1292838
-0.9162183 0.9695459 1.0775468 -0.726989 1.3617117 -1.1176698 -1.0840248 0.9344514
0.7524456 0.82674235 -0.12067731 -0.71298563 -1.7793521 0.45676562 0.55563784 -0.041152205
-1.2737547 -0.62002045 -1.5165603 0.54860395 0.15239933 -1.0129141 -0.75434417 -0.8174243
0.07664593 0.5144972 -0.4098747 0.16152997 1.07289 -0.47288066 0.7207807 -1.0216663
1.068818 -0.27775845 -0.6224456 0.43636814 -0.1028982 0.15434757 0.84495246 -0.04899312
0.22855239 0.22132955 1.7277563 -0.7205261 1.2500175 0.066266924 0.49858513 0.007800034
-2.0439756 -0.41294768 -1.80218 -0.16776094 -0.051134273 1.137155 -0.12925239 1.062815
0.08886024 0.45519063 -0.6557462 1.8909303 0.7979282 -0.28747675 -0.39982128 -0.5729582
-0.39146945 0.18787685 0.2694658 0.8047505 -0.13986227 0.86536354 -0.59610856 -0.37856835
-0.79296494 0.97219366 -1.1193953 0.66193944 -0.33049837 0.22325648 -0.45841128 -0.826845
-0.2565335 0.61291265 -0.9872375 -0.5534746 -0.013386456 -0.8247565 -0.10841911 -1.026847
-0.24084063 0.096152194 -0.43376577 -0.8798131 -0.5312105 -0.62278706 -1.04021 -0.3991862
1.0224713 -0.6234435 0.4401687 -0.58877873 -0.053025555 0.488372 -0.7304156 -0.7226662
0.25427523 -0.27093697 0.10713304 -0.008091837 -0.49180603 0.18725583 -0.045216348 0.72218513
-0.6781252 -0.20935 0.93095595 -0.02225075 -0.23925407 0.48884445 -0.8214581 -0.9851535
-1.2241496 0.4668938 -0.35582098 -0.6270585 0.6585918 0.49034473 -0.20091432 0.6056525
-0.25469348 0.11093065 1.2306914 0.7032857 -0.93528295 0.5069434 -0.026770622 0.4736981
0.14598261 0.61855465 -0.54502714 -1.5191579 0.5372169 -0.9340744 0.42192197 -0.7639468
-0.6454781 0.64203155 -1.3292778 -1.0139189 -1.7581905 0.23706438 -0.4421801 0.7849793
1.2134585 -0.035755813 -0.48731565 0.058292054 -0.7622151 -1.9032921 -2.557556 1.1988527
-0.23379873 0.3526687 0.61496454 0.02818629 1.4326129 -1.1987344 -0.97926104 0.73623186
-0.9367473 0.35930339 1.5611452 0.6928634 -1.4025817 0.66379654 -1.720391 -0.85873693
-0.22980317 0.8089871 -2.6781075 -0.39262092 0.47423768 -0.7905912 -0.0066529447 0.3580215
-1.0880812 0.04008271 -0.84678346 0.76334095 -0.54113466 -0.5696801 -0.11668412 -0.18080512
-0.6332781 0.77610236 0.4030228 1.3961585 0.6598047 -1.1049659 0.6990316 -0.24962454
-0.50760704 -0.959975 0.3187789 0.24337752 1.0239215 -0.28338996 -0.1698274 0.4114081
-0.4343161 0.16494727 0.3496283 -0.043698438 -0.86690754 0.5777094 0.4952261 -0.67125916
00000000: b392 603f a3bf dc3f 80c0 c83e 097c 88be
00000010: eb0e b0bf 74f9 e7be 1d3b b8bf 957f 01bf
00000020: bd6d 59bf 14d1 c8bd dab8 00c0 64b8 5fbf
00000030: a621 df3d a042 933c af11 13bf 7b61 16bf
00000040: 132a 4a3f 581a 29bf cad3 9e3d cdd9 8f3e
00000050: 4f42 ac3f baa3 dbbe bd52 e4bd af2d c3bf
00000060: 3427 1abe a600 9e3f e4ac 95bf b3e1 483d
00000070: 36d9 4cbd cf93 3d3f 1cc7 c1be 9b60 1040
00000080: 05f8 f1bf 0c39 a0be 62e8 033f fc35 873f
00000090: 941a bf3c c8f6 a03f 8713 923f f962 043e
000000a0: 488d 6abf 2934 783f 0eed 893f f31b 3abf
000000b0: 924c ae3f ce0f 8fbf 53c1 8abf 3538 6f3f
000000c0: 46a0 403f 63a5 533f aa25 f7bd 3a86 36bf
000000d0: cfc1 e3bf 2fdd e93e 483e 0e3f 378f 28bd
000000e0: 650a a3bf a9b9 1ebf a61e c2bf 4f71 0c3f
000000f0: 920e 1c3e 2ba7 81bf b31c 41bf b842 51bf
00000100: 8bf8 9c3d 17b6 033f 19db d1be 1d68 253e
00000110: 7654 893f 6a1d f2be 1585 383f f6c5 82bf
00000120: 07cf 883f 5b36 8ebe 9858 1fbf a56b df3e
00000130: 4bbc d2bd 4a0d 1e3e ce4e 583f 03ad 48bd
00000140: a309 6a3e 37a4 623e 1e27 dd3f 6674 38bf
00000150: 9300 a03f f4b6 873d 8d46 ff3e 6d97 ff3b
00000160: 7fd0 02c0 e16d d3be d6ad e6bf 86c9 2bbe
00000170: 2c72 51bd 4c8e 913f bd5a 04be 520a 883f
00000180: 5cfc b53d bf0e e93e fcde 27bf 010a f23f
00000190: 0645 4c3f 2730 93be 60b5 ccbe 63ad 12bf
000001a0: af6e c8be ca62 403e 6cf7 893e 2104 4e3f
000001b0: 0e38 0fbe 7788 5d3f 929a 18bf b6d3 c1be
000001c0: c0ff 4abf afe1 783f 5848 8fbf dd74 293f
000001d0: 1537 a9be 599d 643e e2b4 eabe 1dac 53bf
000001e0: 5c58 83be d8e7 1c3f 99bb 7cbf 83b0 0dbf
000001f0: de52 5bbc 3e23 53bf d70a debd b96f 83bf
00000200: ed9e 76be 71eb c43d 8c16 debe 6e3b 61bf
00000210: 69fd 07bf f96e 1fbf 9a25 85bf 2262 ccbe
00000220: 57e0 823f fe99 1fbf cb5d e13e 34ba 16bf
00000230: 5331 59bd e50b fa3e 84fc 3abf a700 39bf
00000240: 5d30 823e 40b8 8abe 9168 db3d a093 04bc
00000250: 00ce fbbe febf 3f3e c734 39bd 20e1 383f
00000260: 9d99 2dbf d95f 56be 2153 6e3f 3447 b6bc
00000270: 05ff 74be d249 fa3e 144b 52bf 0533 7cbf
00000280: efb0 9cbf b40c ef3e 2b2e b6be e886 20bf
00000290: 7999 283f 770e fb3e 7cbc 4dbe 0b0c 1b3f
000002a0: 2f67 82be 9c2f e33d 4c87 9d3f 880a 343f
000002b0: b46e 6fbf 0bc7 013f 104e dbbc 8f88 f23e
000002c0: 777c 153e 9959 1e3f e686 0bbf c473 c2bf
000002d0: 0c87 093f 801f 6fbf 2806 d83e 0492 43bf
000002e0: 0e3e 25bf 2e5c 243f c625 aabf 18c8 81bf
000002f0: 630c e1bf 01c1 723e 6e65 e2be 67f4 483f
00000300: 9c52 9b3f b074 12bd 7081 f9be a6c3 6e3d
00000310: 8720 43bf 139f f3bf ffae 23c0 0174 993f
00000320: ef68 6fbe fe90 b43e 516e 1d3f efe6 e63c
00000330: dc5f b73f 2170 99bf dab0 7abf b179 3c3f
00000340: acce 6fbf 9df6 b73e 9bd3 c73f 7f5f 313f
00000350: cc87 b3bf 92ee 293f c635 dcbf 2fd6 5bbf
00000360: 8651 6bbe c719 4f3f 1d66 2bc0 9c05 c9be
00000370: 48cf f23e 2f64 4abf f200 dabb 984e b73e
00000380: 3f46 8bbf c52d 243d cdc6 58bf 506a 433f
00000390: cd87 0abf 8ed6 11bf 15f8 eebd fa24 39be
000003a0: 831e 22bf a5ae 463f 0159 ce3e 52b5 b23f
000003b0: f6e8 283f 866f 8dbf bcf3 323f 939d 7fbe
000003c0: 89f2 01bf ecc0 75bf fd36 a33e f537 793e
000003d0: dc0f 833f 7d18 91be 3ce7 2dbe 15a4 d23e
000003e0: ae5e debe f0e7 283e 7b02 b33e 22fd 32bd
000003f0: a7ed 5dbf c3e4 133f 468e fd3e a4d7 2bbf

b1 f4 [300]
-0.9751431 0.73075503 -0.07273961 -0.0724643 -1.2486372 -0.25872344 0.70629483 -0.23418023
-0.5664297 0.07243238 0.1639818 -0.48722574 0.57493085 -0.27104175 -0.79613143 -0.21342732
-0.7660625 -0.36685967 -0.64295906 -1.0819408 -1.8247293 -0.100473456 -1.0285646 0.39181906
-0.32396823 1.5984464 -1.4841405 -0.2787902 -0.6821168 1.5184851 0.662017 -1.3120695
0.92492867 1.2255623 -1.6549139 1.2029105 0.5122538 0.15677223 0.2318578 0.48291564
-0.80114716 0.7362944 -0.5520544 -1.0129915 0.0072121765 -0.05833685 0.026315283 -0.044418085
0.99326056 1.0681963 -0.6327549 0.32347894 0.5970777 0.24872996 0.05480624 -1.2066703
-1.0704708 0.344134 1.4621512 -0.43269688 -1.0783056 -0.048022076 0.73297554 -0.28096637
-0.7947602 -1.5710466 -0.49031806 -0.26280618 0.77747375 0.37708053 1.110383 -0.8984638
0.6398627 0.5345044 0.16824277 0.79937947 2.3699398 -0.33622497 0.2741634 -0.14251462
-1.2039434 -0.1980268 0.3756463 1.1434255 -1.1634188 -0.14019407 0.5053753 -1.4742032
-0.029866517 0.043452032 0.9854681 -0.42925504 -0.26021123 0.46942127 -0.27766347 -0.63146245
-1.884448 -2.815424 0.23015453 -0.22522502 -1.2455945 -0.9051288 -0.34249365 0.9597354
0.5054764 0.6280639 -0.7150344 -0.94679826 -1.4307262 1.7410977 -0.3221585 2.1377609
-0.66848236 0.9712189 -0.51231605 -0.10432995 -2.1019676 0.67584515 -0.12904076 -0.221429
-0.082344554 0.2935367 0.7435075 -0.5075884 0.16697188 0.11886912 0.058211863 -0.054394133
1.0179267 -0.09097517 -0.08455754 -1.076594 -1.8903658 -1.9923064 -0.8100211 -0.37860197
0.08146819 -0.63486713 1.0785213 0.07943284 -1.1867707 -0.87696606 0.26553756 0.99466985
-1.458125 -0.54036814 -2.3354287 0.13315901 3.4124782 -0.54682267 1.5734987 2.8347683
1.3972899 -0.15017527 1.1211631 -0.002295225 -1.2220156 0.7462256 1.6398747 0.9255628
-0.92923445 0.6864259 -0.8032078 -0.69674605 1.2805451 0.8542299 1.08484 -1.7507226
-1.1377918 0.0063898643 1.2927331 -2.252885 0.22996439 -1.0275297 -0.3446101 0.18249625
-0.5226528 -0.80257463 0.23736171 -0.7593686 -1.1566968 -1.4805021 0.01290475 1.0591768
0.40498018 0.04970413 -0.64137864 -1.4172491 0.7233727 1.4349645 0.05463722 0.067800045
0.73587155 0.04803014 -0.349529 0.86707896 0.17504613 0.7774554 0.73745406 1.6004015
0.92852706 0.26056355 -1.5078053 1.1369895 0.53268886 0.37080988 0.16644788 0.22662786
0.31833234 -1.2683985 0.15786251 0.764858 -0.7964589 0.4909672 1.5001671 1.3353311
1.0218527 2.3160121 1.0384912 0.5619732 -0.081805505 0.48174486 2.4038944 -0.33516163
-0.4150208 0.49337813 -0.21866085 1.0275868 0.09292731 0.13125564 -0.010728598 -0.35829222
-0.08353727 1.0230775 -1.4568312 0.30390418 -0.86092013 2.012089 -0.50168186 0.536924
0.4565518 -1.0537324 -0.4008887 -1.8719138 0.11703765 -1.4341738 -1.476913 -0.00017894621
0.3550575 0.9122558 1.693397 0.56126344 0.049807712 -0.8816456 -0.12878011 -0.9599162
00000000: faa2 79bf c312 3b3f 81f8 94bd 2a68 94bd
00000010: 58d3 9fbf 6677 84be bdcf 343f f1cc 6fbe
00000020: 8901 11bf 6d57 943d d8ea 273e a775 f9be
00000030: ab2e 133f fcc5 8abe 45cf 4bbf b18c 5abe
00000040: ac1c 44bf 08d5 bbbe f798 24bf 097d 8abf
00000050: bb90 e9bf 07c5 cdbd 01a8 83bf 829c c83e
00000060: 2adf a5be e499 cc3f 51f8 bdbf 97bd 8ebe
00000070: 359f 2ebf b85d c23f f279 293f e5f1 a7bf
00000080: 20c8 6c3f 3adf 9c3f 38d4 d3bf f9f8 993f
00000090: 1123 033f e688 203e 226c 6d3e b840 f73e
000000a0: fb17 4dbf ca7d 3c3f 7053 0dbf b5a9 81bf
000000b0: 1f54 ec3b 9ff2 6ebd 2693 d73c bdef 35bd
000000c0: 5346 7e3f a8ba 883f 3afc 21bf 089f a53e
000000d0: 16da 183f 11b3 7e3e 827c 603d 2c74 9abf
000000e0: 3005 89bf 5532 b03e c527 bb3f 728a ddbe
000000f0: eb05 8abf ccb2 44bd 49a4 3b3f d3da 8fbe
00000100: 6875 4bbf 0e18 c9bf f80a fbbe 888e 86be
00000110: 8508 473f b310 c13e 0821 8e3f b901 66bf
00000120: 0bce 233f 48d5 083f d547 2c3e 22a4 4c3f
00000130: 18ad 1740 ae25 acbe 255f 8c3e 5aef 11be
00000140: d11a 9abf 8ac7 4abe b654 c03e c45b 923f
00000150: e8ea 94bf 098f 0fbe 4760 013f b1b2 bcbf
00000160: a0aa f4bc c2fa 313d a347 7c3f 51c7 dbbe
00000170: 683a 85be fc57 f03e e829 8ebe 86a7 21bf
00000180: 9835 f1bf e82f 34c0 a1ad 6b3e 63a1 66be
00000190: a46f 9fbf 85b6 67bf 545b afbe 38b1 753f
000001a0: e766 013f ccc8 203f 7f0c 37bf 5f61 72bf
000001b0: 0922 b7bf 4adc de3f f5f1 a4be 13d1 0840
000001c0: a921 2bbf cda1 783f 2527 03bf f1aa d5bd
000001d0: a386 06c0 3004 2d3f 4323 04be 49be 62be
000001e0: 43a4 a8bd 714a 963e 8256 3e3f 50f1 01bf
000001f0: adfa 2a3e a771 f33d 906f 6e3d 62cc 5ebd
00000200: 6c4b 823f 3151 babd 812c adbd d5cd 89bf
00000210: 82f7 f1bf e503 ffbf 8b5d 4fbf 1ed8 c1be
00000220: cbd8 a63d a786 22bf fc0c 8a3f afad a23d
00000230: 1ae8 97bf d980 60bf 8af4 873e afa2 7e3f
00000240: d7a3 babf 9155 0abf aa77 15c0 d65a 083e
00000250: 0b66 5a40 92fc 0bbf 6868 c93f d86c 3540
00000260: 65da b23f 8cc7 19be 4682 8f3f 7c6b 16bb
00000270: 026b 9cbf a408 3f3f 6ae7 d13f aff1 6c3f
00000280: 4fe2 6dbf 9cb9 2f3f 079f 4dbf f35d 32bf
00000290: e7e8 a33f d0ae 5a3f 0adc 8a3f ae17 e0bf
000002a0: 29a3 91bf 1162 d13b 4778 a53f 452f 10c0
000002b0: c97b 6b3e 1886 83bf bc70 b0be 4ce0 3a3e
000002c0: 93cc 05bf 8875 4dbf f30e 733e fb65 42bf
000002d0: a40e 94bf 1881 bdbf 726e 533c 1b93 873f
000002e0: 9059 cf3e 8f96 4b3d 6431 24bf 6b68 b5bf
000002f0: f42e 393f ebac b73f 47cb 5f3d c0da 8a3d
00000300: 1462 3c3f 41bb 443d 77f5 b2be e3f8 5d3f
00000310: 4b3f 333e 5107 473f cac9 3c3f f5d9 cc3f
00000320: f3b3 6d3f 9668 853e c4ff c0bf df88 913f
00000330: 4c5e 083f cbda bd3e 5071 2a3e 2211 683e
00000340: 75fc a23e e25a a2bf b6a6 213e bccd 433f
00000350: bbe4 4bbf 0e60 fb3e 7a05 c03f 21ec aa3f
00000360: 12cc 823f 8b39 1440 48ed 843f 7add 0f3f
00000370: a589 a7bd 43a7 f63e 68d9 1940 4e9a abbe
00000380: 9b7d d4be 0f9c fc3e a1e8 5fbe f787 833f
00000390: ac50 be3d e167 063e 00c7 2fbc 1472 b7be
000003a0: 9715 abbd 34f4 823f 7279 babf 5499 9b3e
000003b0: 4365 5cbf 11c6 0040 396e 00bf da73 093f
000003c0: 28c1 e93e b4e0 86bf 4941 cdbe df9a efbf
000003d0: 6fb1 ef3d 0293 b7bf 7c0b bdbf 82a3 3bb9
000003e0: 19ca b53e 9989 693f 3cc1 d83f f6ae 0f3f
000003f0: 2c03 4c3d 87b3 61bf efde 03be 11bd 75bf

W2 f4 [300, 27]
-0.88014966 -0.17765142 -0.6268937 -1.260494 0.12083921 -1.2234204 0.29607847 0.55753475
-0.92540973 1.1137466 0.014885171 -0.82343787 -0.51615494 1.3617523 -0.23485649 1.0573537
0.23390137 0.39135832 -0.24001282 -0.4719491 0.3147409 0.17854391 -0.367277 -0.99536014
-0.08725067 0.9468334 0.07919292 0.763174 -0.5610071 -0.383515 -1.3360636 -1.3873639
-1.0775695 -0.6808728 -0.29465914 -0.5117542 0.46359754 -0.47598067 -0.37600523 -1.1741937
-0.33765662 0.21641192 0.028978279 0.6795207 0.5199908 0.06892012 0.33336046 -2.2117915
-0.96087503 1.1939595 0.13566026 -0.42345554 -0.6454361 0.71144915 -0.68890357 0.2816784
-0.82959443 -0.69445264 -0.27084976 0.7707547 0.845464 -1.2727375 -0.30683753 0.15516724
0.08767803 0.43500692 -0.7160656 -0.0008580076 0.5081104 0.30395788 0.3439763 -1.4130212
-0.19706242 -0.35093766 0.4057075 0.6109499 0.06482726 0.7465176 0.10842469 0.5065923
-1.2825422 -0.1778139 -0.5605437 -0.008462248 0.6600574 -0.09474661 0.009265165 -1.2106136
-0.04622832 -0.9247643 -0.29962602 -0.1578461 -0.5273158 0.12640154 -0.2304541 -0.8369918
-1.0333508 2.5794022 1.195764 -0.9225619 -2.6993659 0.69365424 1.3556445 0.66255563
-0.92157084 -0.024040716 -2.4370115 0.43652436 0.7333908 -0.31408432 -1.7960982 -0.54702854
-1.1995635 0.6981808 -0.020138504 -1.6861229 3.4108844 1.5706475 -1.6384406 -2.391888
0.7134917 -0.9219609 -0.79007095 0.6698683 -0.7270708 1.3636887 -0.45235962 -0.14787252
-0.29685012 -0.6565907 0.35070515 -0.2518102 -0.48213843 1.3706086 -0.027525412 0.13793415
-0.02963617 -0.898597 -2.1481037 -0.6842284 -0.54495406 -1.4288776 2.6256223 0.4592366
-0.14103064 -1.4587847 -0.9147733 -0.8808686 0.29054478 -0.80110574 0.013902792 -0.8582642
-0.23630834 -0.054422475 -0.6603261 -0.29011923 -0.75243723 -0.35444087 -0.74840975 2.3487408
1.0570325 0.8207751 0.44353828 -0.33867037 0.28885266 -0.5472 -0.7070823 -0.62123954
-0.62411076 -0.14913341 0.18904302 -0.20510873 0.8088915 -1.0162064 -0.24573873 2.1762443
-1.3701125 0.26517755 1.6709031 -0.65123844 0.26848394 1.1570234 0.011665505 -0.91400236
0.1610025 0.44449496 0.6452978 -0.18099302 -0.7749025 0.015011597 -0.42456782 0.24187222
0.73008376 1.1257107 0.20507246 -0.8659391 -0.07148894 0.091043584 -0.377028 0.5862852
-0.5189407 0.6252679 0.36200476 0.26781029 -0.0114514185 -0.051774446 1.1724442 -1.1206423
1.8542849 -1.0015424 0.32629678 0.28459492 -0.5527743 -0.9841594 0.15044405 1.3083906
-0.37708017 -0.786943 -3.211065 0.1343274 -0.61305106 -0.7888495 -0.58103126 -1.3304528
0.8161191 -0.87705535 0.54589045 0.014387091 0.008560201 0.81390005 1.3452157 -0.5038745
1.7807132 0.8104402 -0.53377694 0.22354318 -1.4013011 1.0944755 -0.59259194 0.36327636
-0.3473782 -0.3356955 1.5637039 0.620513 -0.24049067 0.7204727 0.51783866 -0.53463894
-0.6880955 -1.8891606 -0.47549683 -0.74201506 -1.1967666 0.49957898 0.12098696 0.5938854
00000000: 7d51 61bf 41ea 35be 1b7c 20bf de57 a1bf
00000010: 8c7a f73d 0a99 9cbf 9997 973e 99ba 0e3f
00000020: a7e7 6cbf 408f 8e3f efe0 733c d3cc 52bf
00000030: bb22 04bf e64d ae3f 387e 70be 5e57 873f
00000040: d783 6f3e 1e60 c83e ecc5 75be 50a3 f1be
00000050: b825 a13e 37d4 363e bb0b bcbe eccf 7ebf
00000060: 7bb0 b2bd ac63 723f e62f a23d 5f5f 433f
00000070: 299e 0fbf 145c c4be 2204 abbf 2495 b1bf
00000080: cced 89bf ae4d 2ebf 90dd 96be 5302 03bf
00000090: a85c ed3e bdb3 f3be c283 c0be fb4b 96bf
000000a0: 54e1 acbe 169b 5d3e db63 ed3c 12f5 2d3f
000000b0: 1e1e 053f fe25 8d3d 39ae aa3e fe8d 0dc0
000000c0: e8fb 75bf aad3 983f 86ea 0a3e 2acf d8be
000000d0: 4d3b 25bf 8821 363f fc5b 30bf 2738 903e
000000e0: 4d60 54bf a6c7 31bf d2ac 8abe 2e50 453f
000000f0: 5470 583f 10e9 a2bf cf19 9dbe 29e4 1e3e
00000100: 8a90 b33d 3ab9 de3e 1350 37bf eaeb 60ba
00000110: 8613 023f 5ea0 9b3e a91d b03e e1dd b4bf
00000120: bbca 49be 1aae b3be e5b8 cf3e 3667 1c3f
00000130: 28c4 843d c71b 3f3f c40d de3d 08b0 013f
00000140: 582a a4bf d914 36be cb7f 0fbf 3ea5 0abc
00000150: 86f9 283f 830a c2bd ebcc 173c 63f5 9abf
00000160: e859 3dbd 5abd 6cbf 9568 99be 68a2 21be
00000170: 2bfe 06bf 686f 013e 29fc 6bbe 1845 56bf
00000180: d744 84bf ed14 2540 cb0e 993f 042d 6cbf
00000190: 69c2 2cc0 5393 313f c285 ad3f 3f9d 293f
000001a0: 11ec 6bbf 09f1 c4bc fff7 1bc0 1f80 df3e
000001b0: 80bf 3b3f a9cf a0be 8ce6 e5bf 100a 0cbf
000001c0: 4c8b 99bf fabb 323f 81f9 a4bc e0d2 d7bf
000001d0: ee4b 5a40 fa0a c93f 6cb8 d1bf b114 19c0
000001e0: 64a7 363f a105 6cbf 1742 4abf 7d7c 2b3f
000001f0: 5021 3abf 5a8d ae3f ae9b e7be e56b 17be
00000200: bdfc 97be 5416 28bf a08f b33e 44ed 80be
00000210: d9da f6be 1a70 af3f f97c e1bc 9c3e 0d3e
00000220: 8ec7 f2bc 740a 66bf 887a 09c0 9829 2fbf
00000230: 1c82 0bbf 76e5 b6bf 320a 2840 0f21 eb3e
00000240: 566a 10be 75b9 babf 952e 6abf 9b80 61bf
00000250: 49c2 943e 4415 4dbf 89c8 633c 34b7 5bbf
00000260: d0fa 71be 1aea 5ebd 220b 29bf 828a 94be
00000270: ba9f 40bf 4679 b5be c897 3fbf c551 1640
00000280: d74c 873f 511e 523f 7317 e33e 3466 adbe
00000290: 7fe4 933e 4d15 0cbf 5803 35bf 8e09 1fbf
000002a0: b9c5 1fbf 6eb6 18be 7e94 413e 0608 52be
000002b0: 8313 4f3f 0d13 82bf efa2 7bbe 9647 0b40
000002c0: d95f afbf 5ac5 873e 27e0 d53f 90b7 26bf
000002d0: ba76 893e 5819 943f ad20 3f3c 0ffc 69bf
000002e0: d7dd 243e d894 e33e 3d32 253f 3c56 39be
000002f0: 0360 46bf 34f3 753c f460 d9be 5aad 773e
00000300: c5e6 3a3f 4a17 903f 84fe 513e 2fae 5dbf
00000310: cb68 92bd 0f75 ba3d d009 c1be c916 163f
00000320: 4cd9 04bf 8f11 203f b058 b93e 6e1e 893e
00000330: bb9e 3bbc 7111 54bd a712 963f 3571 8fbf
00000340: 3559 ed3f 8b32 80bf 5f10 a73e 6db6 913e
00000350: 9e82 0dbf dff1 7bbf 010e 1a3e 5879 a73f
00000360: a710 c1be 1975 49bf 1782 4dc0 1f8d 093e
00000370: eaf0 1cbf 0af2 49bf 77be 14bf 474c aabf
00000380: 2eed 503f b386 60bf 7abf 0b3f d5b7 6b3c
00000390: 1640 0c3c c15b 503f 0730 ac3f ebfd 00bf
000003a0: 69ee e33f 0279 4f3f 9ba5 08bf 81e8 643e
000003b0: d65d b3bf c617 8c3f 1bb4 17bf 5cff b93e
000003c0: 8edb b1be 48e0 abbe 7327 c83f f1d9 1e3f
000003d0: 3043 76be e670 383f 1391 043f 19de 08bf
000003e0: 0727 30bf 04d0 f1bf 5274 f3be b3f4 3dbf
000003f0: a62f 99bf d1c8 ff3e 03c8 f73d e008 183f

b2 f4 [27]
-0.032502584 -0.08510229 0.5877383 0.9261642 0.2814886 1.335682 1.5366361 0.24088895
-0.85594577 -0.10069595 0.39335936 -1.2813967 0.33536705 -1.8197906 -0.035113692 0.1951821
2.068653 2.0438716 -0.8738473 -1.6935856 1.2209357 -0.13690756 -0.6564482 0.8777918
0.09217283 -0.048658088 0.120284535
00000000: 6e21 05bd 1c4a aebd 0476 163f 1919 6d3f
00000010: 461f 903e a1f7 aa3f 7eb0 c43f 98ab 763e
00000020: 431f 5bbf ae39 cebd 6666 c93e cf04 a4bf
00000030: 3bb5 ab3e e6ee e8bf 60d3 0fbd d1dd 473e
00000040: d064 0440 cbce 0240 75b4 5fbf 6ac7 d8bf
00000050: 9f47 9c3f 7f31 0cbe fd0c 28bf f7b6 603f
00000060: 1cc5 bc3d b44d 47bd bd57 f63d
